model.pt (torch, 431208 bytes, 8 tensors)

weight f4 [20, 1, 5, 5]
0.012574402 -0.2023515 -0.21670619 0.022600709 0.27110028 -0.1445259 -0.21155533 -0.2244164
0.18707205 0.1651569 -0.09268339 -0.07474376 -0.027421433 -0.019571265 0.06283004 -0.065304324
0.09824154 -0.13443395 0.016071288 0.1467359 0.19154046 -0.10801252 0.13322684 -0.24085861
0.07474861 -0.16443475 0.06412791 0.14266424 -0.10522061 -0.19261114 -0.09639092 0.0104669845
-0.22143084 0.17669947 0.08993082 -0.21016683 -0.24823734 0.064545885 -0.05285404 0.21321076
0.10083463 -0.09820067 -0.058746625 0.0077109034 0.040044717 0.2204206 0.2551863 0.1335484
0.01481063 0.1346637 -0.08534518 0.14550917 -0.18471625 0.096175954 -0.009787948 0.09482495
0.2602249 -0.22985183 0.100212805 0.1423126 0.07900351 0.22603631 -0.2931334 0.008792913
-0.07862315 -0.02218242 0.24870245 0.14170408 -0.3058668 0.0030464674 -0.24566008 0.3032674
-0.18749532 0.05859685 -0.06508671 0.089573145 0.25710508 0.061823655 0.13551652 -0.054193307
0.23599316 0.118071884 0.0022904642 0.08033203 -0.038113587 0.12870708 -0.15150645 0.10134691
-0.17204641 0.09171255 -0.2767243 -0.10809075 -0.07062802 0.04331155 -0.10152071 -0.26277897
-0.17005323 -0.3160374 -0.09567747 0.010960813 -0.28879246 0.26706943 0.21315013 -0.1346555
-0.09770384 -0.31752473 -0.055582535 0.3361076 -0.023108704 0.050860688 -0.15999693 0.039990995
0.023142125 0.015855836 0.008779821 0.006174962 0.11618971 -0.13099489 0.11986526 -0.061793365
-0.20711517 0.2113468 0.13820422 -0.08650487 -0.074757524 0.27950293 0.35592836 -0.1603272
0.06743741 0.05223741 0.12331825 0.08300688 0.08898182 0.13954535 -0.024361305 0.085986905
-0.025893642 -0.29625806 -0.072327636 0.1691914 -0.0044615036 -0.23747005 0.024510408 -0.094359376
-0.15394092 -0.14333609 -0.28916076 0.049432743 0.146535 -0.103517115 -0.060233373 0.20951144
-0.16397448 -0.08351189 -0.0795024 0.036773697 -0.30056527 -0.21742624 -0.017813032 0.11475875
0.17383364 0.2627708 0.24750917 -0.03773857 0.21443115 0.08447124 -0.04580129 0.0966508
0.1330893 0.009369939 -0.20983027 -0.13942523 -0.102929145 -0.23280253 -0.102746725 0.071974546
0.07892797 -0.16852568 -0.22917339 -0.228585 0.09732893 -0.025344333 0.18622343 -0.26616958
-0.2829976 -0.17876029 -0.036627777 -0.02273643 0.07889637 0.18170434 0.10711228 0.22545516
0.1585992 -0.049854968 -0.09340402 0.09563955 -0.13484836 0.061893824 0.23952831 0.2755895
0.034039635 -0.35272005 0.031089472 -0.029939655 0.32502478 0.013149814 -0.2642143 0.14371121
0.04305955 0.06692927 0.18341054 -0.14342622 -0.07104199 -0.081193075 0.14617066 0.250698
-0.14349766 -0.04668237 -0.020948593 -0.029579524 0.26436338 -0.2572447 0.19762212 -0.14886154
-0.079936326 -0.15607649 -0.020642446 -0.24448955 0.07234425 -0.034794897 -0.06660337 0.013248859
0.07568161 0.079163015 0.09073322 0.259727 0.15862206 -0.17615855 -0.19099493 0.2503845
-0.008534773 0.026034975 -0.24512193 -0.1464932 0.03651391 0.07033737 -0.05667643 -0.12944871
-0.23553742 0.2709641 -0.13606972 -0.15062463 -0.073708 -0.018352378 0.018927226 0.09436111
00000000: dd04 4e3c 3b35 4fbe 3ae8 5dbe 1f25 b93c
00000010: a8cd 8a3e 99fe 13be f6a1 58be 6acd 65be
00000020: d18f 3f3e e41e 293e cad0 bdbd 4213 99bd
00000030: eaa2 e0bc eb53 a0bc 09ad 803d 46be 85bd
00000040: dc32 c93d 0ea9 09be efa7 833c f041 163e
00000050: 2f23 443e ab35 ddbd 9e6c 083e a4a3 76be
00000060: cd15 993d 9561 28be 7e55 833d 9316 123e
00000070: e77d d7bd db3b 45be 9a68 c5bd b77d 2b3c
00000080: c4be 62be b5f0 343e a62d b83d f935 57be
00000090: ee31 7ebe a230 843d 7a7d 58bd ec53 5a3e
000000a0: 6382 ce3d 6f1d c9bd 4da0 70bd bfab fc3b
000000b0: ee05 243d f0b5 613e c7a7 823e e9c0 083e
000000c0: 49a8 723c 48e5 093e 74c9 aebd 5b00 153e
000000d0: 4226 3dbe e6f7 c43d a15d 20bc 9533 c23d
000000e0: 333c 853e 475e 6bbe 5f3c cd3d 65ba 113e
000000f0: 98cc a13d 1076 673e 9515 96be 2610 103c
00000100: 2d05 a1bd e8b7 b5bc dbab 7e3e e01a 113e
00000110: 939a 9cbe 3ea7 473b 518e 7bbe dd45 9b3e
00000120: c6fe 3fbe 4003 703d 2e4c 85bd 2072 b73d
00000130: 47a3 833e cd3a 7d3d d8c4 0a3e cdf9 5dbd
00000140: 31a8 713e accf f13d 9d1b 163b 1f85 a43d
00000150: fe1c 1cbd cacb 033e 8224 1bbe f88e cf3d
00000160: ef2c 30be cad3 bb3d cfae 8dbe af5e ddbd
00000170: 6ca5 90bd 7467 313d 17ea cfbd f78a 86be
00000180: 6f22 2ebe a7cf a1be 8df2 c3bd fb94 333c
00000190: 9bdc 93be 53bd 883e 0744 5a3e 22e3 09be
000001a0: f318 c8bd 9a92 a2be 83aa 63bd 4c16 ac3e
000001b0: 774e bdbc 4c53 503d 3cd6 23be 99cd 233d
000001c0: 8e94 bd3c 19e4 813c 3dd9 0f3c 5657 ca3b
000001d0: dff4 ed3d 8623 06be eb7b f53d 0a1b 7dbd
000001e0: 0016 54be 4c6b 583e 6885 0d3e 7729 b1bd
000001f0: 791a 99bd 021b 8f3e 3e3c b63e d02c 24be
00000200: a01c 8a3d e5f6 553d 478e fc3d 83ff a93d
00000210: 1a3c b63d fae4 0e3e 5c91 c7bc e719 b03d
00000220: e71e d4bc 23af 97be 8320 94bd 8340 2d3e
00000230: ce31 92bb 592b 73be 0dca c83c 7d3f c1bd
00000240: b0a2 1dbe b2c6 12be e10c 94be fd79 4a3d
00000250: 450d 163e c800 d4bd 45b7 76bd 2b8a 563e
00000260: ede8 27be 4808 abbd 27d2 a2bd 04a0 163d
00000270: b1e3 99be fca4 5ebe a3ec 91bc a306 eb3d
00000280: 7201 323e e589 863e 0b73 7d3e c293 1abd
00000290: d793 5b3e 42ff ac3d 229a 3bbd dbf0 c53d
000002a0: 9048 083e 5f84 193c bfdd 56be 7dc5 0ebe
000002b0: 84cc d2bd c963 6ebe e06c d2bd 6467 933d
000002c0: fda4 a13d ff91 2cbe 6eac 6abe 3012 6abe
000002d0: 6454 c73d eb9e cfbc 5bb1 3e3e 6147 88be
000002e0: 10e5 90be f00c 37be 0207 16bd c041 babc
000002f0: 6c94 a13d b410 3a3e af5d db3d b8dd 663e
00000300: d467 223e b934 4cbd 9b4a bfbd abde c33d
00000310: b015 0abe 6184 7d3d e946 753e 111a 8d3e
00000320: 256d 0b3d b997 b4be 59af fe3c 0244 f5bc
00000330: a669 a63e 5172 573c 1947 87be 0829 133e
00000340: 365f 303d 3712 893d f9cf 3b3e 53de 12be
00000350: 767e 91bd 8e48 a6bd c3ad 153e 7d5b 803e
00000360: 0df1 12be 0336 3fbd 629c abbc c250 f2bc
00000370: a35a 873e 94b5 83be 745d 4a3e 296f 18be
00000380: a8b5 a3bd 84d2 1fbe 591a a9bc 785b 7abe
00000390: 3929 943d 1885 0ebd 5967 88bd be11 593c
000003a0: f6fe 9a3d 3820 a23d 57d2 b93d f0fa 843e
000003b0: d26d 223e e862 34be 2d94 43be 6632 803e
000003c0: 6fd5 0bbc 4d47 d53c 3e01 7bbe 5002 16be
000003d0: 9c8f 153d 0a0d 903d 8b25 68bd 348e 04be
000003e0: b930 71be cebb 8a3e dc55 0bbe 583d 1abe
000003f0: 38f4 96bd ba57 96bc 450d 9b3c 6640 c13d

bias f4 [20]
0.06572687 -0.2212375 -0.11925601 -0.10756623 -0.07512368 -0.039019696 0.04377972 -0.15260227
-0.14376731 0.06710414 -0.088555135 -0.093864545 0.020486584 -0.19188373 -0.081634745 0.05489601
0.06286688 -0.08110782 -0.09293388 0.01737812
00000000: cf9b 863d 158c 62be 7f3c f4bd af4b dcbd
00000010: 72da 99bd 1ed3 1fbd 5d52 333d c543 1cbe
00000020: bd37 13be e56d 893d 655c b5bd 0e3c c0bd
00000030: 7bd3 a73c 2b7d 44be 1e30 a7bd a3da 603d
00000040: 5ac0 803d db1b a6bd 1e54 bebd 8f5c 8e3c

weight f4 [20, 20, 3, 3]
0.108163014 0.057918634 0.07487001 0.13536493 0.13256045 -0.019739378 -0.06523477 -0.07194055
0.020797644 0.11149254 0.14836113 0.05086633 0.13264237 0.091753714 0.042426754 -0.00081003824
-0.027464388 -0.07733273 -0.0038797124 0.0896482 -0.07599121 -0.061351653 -0.0036145868 -0.04035253
-0.117948554 0.0023270121 -0.10081969 0.12473751 0.0045379237 -0.004400475 0.034303676 0.0016242465
0.01996842 -0.08435639 0.053597253 0.035642184 -0.10512545 -0.010134388 -0.023886258 -0.045732375
0.0947526 -0.03861808 0.011690944 -0.12822342 -0.1147498 0.037622504 0.054575827 -0.15779789
-0.07506805 -0.097327344 -0.03269309 -0.07567286 0.038424924 0.02161383 -0.14349347 -0.05985629
-0.06622251 0.048931148 0.02852742 -0.14427295 0.056949522 -0.10259793 -0.036071576 0.0074135126
-0.07808786 -0.03881894 0.15614097 0.011397528 -0.12170936 0.043053914 -0.01175868 -0.10609582
-0.008898678 0.11829395 -0.05530549 0.04047588 0.054741204 0.017127108 -0.10958739 -0.08343221
-0.0067012627 0.18084344 -0.0032371162 -0.057950072 0.05839926 -0.05154804 -0.04651837 0.039453276
-0.050454374 -0.097314164 0.006313831 0.098494515 0.09060768 0.008975562 -0.07022248 -0.0501175
-0.024305051 -0.13573648 -0.069291264 0.05862145 0.15185028 0.12759857 0.008109708 -0.059492506
-0.010344272 -0.020708399 -0.05487091 0.00028835205 -0.028622195 0.038530402 0.023491133 -0.13449514
-0.024124749 0.11536788 -0.04024989 -0.07233414 -0.033517495 0.029022092 -0.13388208 -0.03571072
0.07705024 0.05788922 -0.10668475 0.0060005886 0.028165966 -0.09028693 0.08571026 0.1584324
-0.019520437 0.05525802 0.059474297 0.0067655966 -0.029918129 0.113164395 -0.06408715 0.00078118726
-0.04708008 -0.077185564 0.067915484 -0.019504366 -0.1600033 0.058427434 -0.027308127 -0.10536891
0.016871748 -0.13191801 0.08498364 -0.05497741 -0.032813635 -0.045259822 -0.030307192 -0.08114169
-0.0145526035 0.08338234 -0.0944645 0.011712409 0.060525123 0.055844393 0.00082991424 0.023923647
-0.089325756 -0.07062422 0.052445993 -0.040228657 -0.0033858824 0.010514521 0.016279332 -0.07733561
-0.09004286 -0.06318277 -0.1888403 -0.05624347 -0.034384076 0.043863274 0.109007016 0.06448941
-0.050063714 0.028736243 -0.013709266 -0.06569146 0.12857573 -0.019338211 -0.1324682 0.005563856
0.04866768 -0.015568174 0.00772132 -0.06897936 0.042294256 0.07758981 0.03181647 0.003908325
0.08595972 0.0667758 0.03098175 -0.025072427 0.027534826 -0.05636489 -0.134249 0.008846752
-0.06799025 -0.05945572 -0.1704184 -0.03211333 -0.048241947 -0.07850388 -0.017557992 0.025302412
0.067742065 -0.038986485 0.08865825 0.009110314 0.10339117 -0.011600041 0.113685004 0.11707482
0.03934067 -0.008005281 -0.021313904 0.13588127 -0.00083593436 -0.10787469 0.119162194 -0.048300393
-0.14286602 -0.023250341 0.02657307 -0.17440929 -0.027844973 -0.010678188 -0.09937731 0.04556426
0.036172826 0.06462145 0.044836707 -0.0070763044 -0.0071375947 -0.07110317 -0.06388233 -0.0021231514
0.08647656 0.013534707 0.03298967 -0.13342386 -0.02636056 0.18221161 0.013451029 -0.000991327
0.041603953 0.18399502 0.075722866 -0.0856962 0.11234883 0.045499027 -0.15160589 0.12273443
00000000: 9284 dd3d 173c 6d3d 7355 993d 1b9d 0a3e
00000010: edbd 073e 7ab4 a1bc cf99 85bd 9155 93bd
00000020: d25f aa3c 3356 e43d fbeb 173e 3659 503d
00000030: 67d3 073e 5fe9 bb3d adc7 2d3d bf58 54ba
00000040: fffc e0bc 9f60 9ebd c642 7ebb 7a99 b73d
00000050: 48a1 9bbd df4b 7bbd b4e2 6cbb b248 25bd
00000060: 038f f1bd c980 183b 8e7a cebd 6176 ff3d
00000070: ddb2 943b dc31 90bb 0382 0c3d abe4 d43a
00000080: d094 a33c 0bc3 acbd cb88 5b3d 8afd 113d
00000090: 034c d7bd b40a 26bc 1dad c3bc df51 3bbd
000000a0: a70d c23d fe2d 1ebd 608b 3f3c 004d 03be
000000b0: f101 ebbd 0e1a 1a3d e78a 5f3d c595 21be
000000c0: 47bd 99bd 8f53 c7bd 31e9 05bd 5ffa 9abd
000000d0: 7463 1d3d 7d0f b13c f4ef 12be df2b 75bd
000000e0: ab9f 87bd 076c 483d 56b2 e93c 4abc 13be
000000f0: e743 693d dd1e d2bd cabf 13bd 0ded f23b
00000100: 87ec 9fbd 9c00 1fbd 6be3 1f3e b3bc 3a3c
00000110: c242 f9bd 4d59 303d 7ba7 40bc c448 d9bd
00000120: c3cb 11bc 1944 f23d 0288 62bd 09ca 253d
00000130: 5038 603d 264e 8c3c 5b6f e0bd 82de aabd
00000140: 4496 dbbb 062f 393e cc25 54bb 0e5d 6dbd
00000150: 1034 6f3d 0a24 53bd 0c8a 3ebd c299 213d
00000160: 3fa9 4ebd a64c c7bd 41e4 ce3b 7eb7 c93d
00000170: 8590 b93d 3c0e 133c ced0 8fbd 0248 4dbd
00000180: 631b c7bc 81fe 0abe 94e8 8dbd 0c1d 703d
00000190: a47e 1b3e 33a9 023e 95de 043c 6aae 73bd
000001a0: 057b 29bc a9a4 a9bc 52c0 60bd f52d 9739
000001b0: 1879 eabc 0ed2 1d3d 7a70 c03c 18b9 09be
000001c0: 44a1 c5bc ff45 ec3d 12dd 24bd ec23 94bd
000001d0: a449 09bd bdbf ed3c 6218 09be 6745 12bd
000001e0: 84cc 9d3d 3f1d 6d3d 897d dabd 96a0 c43b
000001f0: 50bc e63c 5be8 b8bd dc88 af3d 1a3c 223e
00000200: 53e9 9fbc 3c56 623d 529b 733d f0b1 dd3b
00000210: dd16 f5bc bcc2 e73d 2040 83bd 97c8 4c3a
00000220: 0bd7 40bd 7713 9ebd 4617 8b3d 9fc7 9fbc
00000230: e8d7 23be 9b51 6f3d 4bb5 dfbc a8cb d7bd
00000240: 9f36 8a3c 8415 07be e70b ae3d fe2f 61bd
00000250: 9767 06bd 5d62 39bd ca46 f8bc 9d2d a6bd
00000260: 0b6e 6ebc 5cc4 aa3d 9b76 c1bd 67e5 3f3c
00000270: 31e9 773d 17bd 643d 9a8e 593a 86fb c33c
00000280: 6cf0 b6bd 6ea3 90bd 9cd1 563d cec6 24bd
00000290: aee5 5dbb 1945 2c3c 3c5c 853c 2262 9ebd
000002a0: 6468 b8bd f865 81bd 5a5f 41be 8e5f 66bd
000002b0: 51d6 0cbd faa9 333d 123f df3d 0613 843d
000002c0: 9c0f 4dbd 4568 eb3c d49c 60bc 3f89 86bd
000002d0: 5ba9 033e 2b6b 9ebc bea5 07be 0251 b63b
000002e0: c357 473d a811 7fbc 2003 fd3b 0d45 8dbd
000002f0: be3c 2d3d 68e7 9e3d fd51 023d 6811 803b
00000300: a60b b03d c0c1 883d 70cd fd3c b164 cdbc
00000310: b790 e13c dfde 66bd 9278 09be f8f1 103c
00000320: 793e 8bbd d787 73bd 2982 2ebe 4489 03bd
00000330: 5999 45bd a4c6 a0bd c7d5 8fbc 0147 cf3c
00000340: 5abc 8a3d 4bb0 1fbd 7592 b53d 6d43 153c
00000350: c0be d33d 190e 3ebc afd3 e83d ecc4 ef3d
00000360: af23 213d 9528 03bc 7f9a aebc 7624 0b3e
00000370: 9b22 5bba 68ed dcbd 4f0b f43d a2d6 45bd
00000380: 784b 12be 8077 bebc c4af d93c 5998 32be
00000390: 241b e4bc 91f3 2ebc 5586 cbbd 97a1 3a3d
000003a0: f529 143d 4058 843d b2a6 373d 58e0 e7bb
000003b0: 7ce2 e9bb 8a9e 91bd bdd4 82bd 9224 0bbb
000003c0: 9f1a b13d adc0 5d3c 2d20 073d 44a0 08be
000003d0: 1af2 d7bc ae95 3a3e b461 5c3c 6aef 81ba
000003e0: e868 2a3d 3169 3c3e 9714 9b3d 7d81 afbd
000003f0: 2517 e63d 305d 3a3d 933e 1bbe 305c fb3d

bias f4 [20]
-0.037720323 -0.04262235 -0.0148956645 -0.07267822 -0.062244557 -0.017084438 0.0050500953 -0.108805954
0.0036113153 -0.05913154 -0.06797128 -0.015706688 -0.106900245 -0.040980168 -0.1417484 -0.059339967
-0.079693645 -0.01985819 -0.07447209 -0.014329507
00000000: a080 1abd c694 2ebd f20c 74bc 52d8 94bd
00000010: 26f4 7ebd aaf4 8bbc 457b a53b a8d5 debd
00000020: d1ab 6c3b ea33 72bd 8734 8bbd 50ab 80bc
00000030: 84ee dabd d2da 27bd 7e26 11be 770e 73bd
00000040: 6c36 a3bd a5ad a2bc d384 98bd 4fc6 6abc

weight f4 [200, 500]
-0.010114151 0.003296512 -0.03733293 -0.02564002 0.009768978 -0.02481947 -0.016977394 0.012573243
0.06183988 0.0013328259 -0.010091853 -0.017681915 0.05294812 0.026294302 -0.041056942 0.02589283
0.028899247 0.02959161 -0.024319785 -0.046848204 0.016426442 0.07843086 0.028243845 0.024655348
0.043759033 0.040436603 0.00415011 -0.07288905 -0.03232913 0.019002842 0.012928973 0.027378289
0.05089936 0.005646537 0.017058237 0.025507435 0.027523171 0.013416679 -0.024140397 -0.03844325
-0.003054746 0.037705008 0.028843813 -0.017496314 -0.030749336 -0.038968906 0.026455222 0.04453724
0.031703543 0.011137325 0.01938333 0.049046583 -0.07305893 0.08554407 0.10896872 0.029024009
0.03712633 -0.019486634 0.025143126 0.04225967 0.03840311 0.008155883 -0.010142418 -0.06499639
0.04136639 0.019004703 0.0008200849 -0.02544861 -0.056423843 0.00024602513 0.029504724 0.0066492567
-0.021499667 -0.015972462 -0.13966416 -0.010403227 -0.0077923993 -0.013409937 0.078089565 0.031303093
-0.0023845215 0.006645146 0.02735591 0.008386789 0.026487855 0.062289294 0.031110346 0.023704613
0.0038659403 0.016838973 0.05297943 -0.008493474 -0.021427536 0.009974127 -0.030361384 0.019201007
-0.004523668 0.0038525376 0.00045270976 -0.020050308 -0.021464163 0.048858553 -0.1701654 -0.002942026
0.03042473 0.01230819 0.044321023 -0.015585915 -0.004317784 0.010471882 0.037994623 0.02782537
-0.0126525955 -0.0014543945 0.030539148 -0.0065495 0.039148927 -0.019518252 0.033791095 -0.005944561
-0.0040621217 -0.0005297888 0.02488588 0.044511322 0.0038130886 0.0019192968 0.0773686 -0.008729739
0.05213204 -0.033767857 -0.01651249 0.00013146792 0.0594281 0.043134477 0.025385076 -0.035059184
-0.021172792 0.023209516 0.010493903 -0.028724981 -0.024129355 -0.035964727 0.009483185 -0.026346954
0.03982476 -0.02039605 0.0006163787 0.024308244 -0.0199717 0.025544893 0.11318817 -0.046382874
0.008349374 -0.009379294 -0.029152073 0.0013309757 0.0067965537 0.0056132716 -0.008070299 -0.022318868
0.04244253 0.005550076 0.014662525 0.042218488 0.07983903 0.03555879 -0.0048621413 0.036948577
0.056542892 0.008129189 -0.015126351 -0.05808008 0.025623187 0.025764678 0.036062595 -0.02742696
-0.03658029 -0.026878972 -0.032150745 -0.03115654 0.07183601 0.015085397 -0.0032797097 -0.024403382
0.07617297 0.025269663 -0.016959885 -0.01782564 -0.03047716 -0.001442253 0.021805463 -0.009624339
-0.020979034 -0.01898044 0.013249457 0.003560804 0.040223576 0.012074761 0.02488787 -0.03090071
-0.008449799 -0.018184165 0.0038763436 -0.012880396 0.018933505 -0.042829588 -0.045800034 -0.0025195605
-0.048454665 0.029113585 -0.03095821 0.0058055436 -0.016219845 0.0010346586 0.013011238 -0.09245497
0.06070945 -0.0077270935 0.026123399 -0.034966994 -0.083950855 0.059092626 0.0014458571 0.045928854
0.033151843 -0.013515445 -0.010672382 0.01912112 0.018406715 0.02535324 -0.009356503 -0.028877454
0.047469705 0.0076165884 -0.07191341 0.10741062 0.022428904 0.058918715 0.02199662 0.018250154
-0.0021208634 0.01147387 0.014649297 0.024275957 0.035008002 0.11163787 0.034301937 0.031090649
0.04044206 0.06065868 0.04987886 0.030356994 0.107394814 -0.015707081 0.024270805 -0.017361004
00000000: d3b5 25bc 4b0a 583b 6aea 18bd 050b d2bc
00000010: 100e 203c 3352 cbbc 2d14 8bbc 0100 4e3c
00000020: d04b 7d3d 37b2 ae3a 4d58 25bc aad9 90bc
00000030: 21e0 583d 2667 d73c 532b 28bd 331d d43c
00000040: 1dbe ec3c 1b6a f23c 493a c7bc e7e3 3fbd
00000050: bf90 863c 5ca0 a03d a35f e73c 03fa c93c
00000060: ac3c 333d daa0 253d a5fd 873b db46 95bd
00000070: 8d6b 04bd d9ab 9b3c 0bd4 533c 6f48 e03c
00000080: d97b 503d 9606 b93b b7bd 8b3c f8f4 d03c
00000090: 4678 e13c a1d1 5b3c 15c2 c5bc ab76 1dbd
000000a0: 2232 48bb 9170 1a3d dc49 ec3c 6e54 8fbc
000000b0: 08e6 fbbc dc9d 1fbd 9fb8 d83c ae6c 363d
000000c0: 93db 013d 5479 363c cac9 9e3c 12e5 483d
000000d0: ec9f 95bd bb31 af3d fe2a df3d c2c3 ed3c
000000e0: c711 183d 6fa2 9fbc f5f8 cd3c 7a18 2d3d
000000f0: 944c 1d3d 41a0 053c 622c 26bc d41c 85bd
00000100: ce6f 293d c0af 9b3c f7fa 563a 9a79 d0bc
00000110: b01c 67bd effc 8039 e4b3 f13c 02e2 d93b
00000120: 1220 b0bc aed8 82bc 1f04 0fbe 4c72 2abc
00000130: 6257 ffbb 5ab5 5bbc 6ced 9f3d ac37 003d
00000140: a245 1cbb 86bf d93b 8019 e03c be68 093c
00000150: 0ffd d83c 0f23 7f3d 20db fe3c 2d30 c23c
00000160: b75b 7d3b e3f1 893c f500 593d 3628 0bbc
00000170: cd88 afbc 856a 233c 70b8 f8bc 6e4b 9d3c
00000180: 473b 94bb db7a 7c3b ad59 ed39 8b40 a4bc
00000190: 9dd5 afbc e81f 483d d73f 2ebe 01cf 40bb
000001a0: 493d f93c 4aa8 493c f689 353d 115c 7fbc
000001b0: 337c 8dbb 4292 2b3c 40a0 1b3d 08f2 e33c
000001c0: d54c 4fbc 62a1 beba 3c2d fa3c 309d d6bb
000001d0: a05a 203d bee4 9fbc 8868 0a3d 98ca c2bb
000001e0: 8c1b 85bb 86e1 0aba 79dd cb3c 8151 363d
000001f0: 03e5 793b ea90 fb3a 6e73 9e3d 2e07 0fbc
00000200: 6888 553d 2a50 0abd 3445 87bc a7da 0939
00000210: e16a 733d c7ad 303d 5df4 cf3c 389a 0fbd
00000220: 9072 adbc e221 be3c 9fee 2b3c a750 ebbc
00000230: edaa c5bc c04f 13bd 5c5f 1b3c 91d5 d7bc
00000240: 4a1f 233d 9e15 a7bc 7994 213a 1522 c73c
00000250: b19b a3bc 8643 d13c 33cf e73d f8fb 3dbd
00000260: d0cb 083c 9cab 19bc 54d0 eebc 2274 ae3a
00000270: a0b5 de3b 89ef b73b 4a39 04bc 0fd6 b6bc
00000280: 38d8 2d3d 69dd b53b 163b 703c 4bed 2c3d
00000290: a582 a33d 18a6 113d 9952 9fbb 6457 173d
000002a0: 8599 673d 4a30 053c 84d4 77bc 61e5 6dbd
000002b0: b8e7 d13c 7210 d33c 5fb6 133d 81ae e0bc
000002c0: 37d5 15bd 4a31 dcbc 80b0 03bd 003c ffbc
000002d0: c21e 933d be28 773c 66f0 56bb 9ae9 c7bc
000002e0: 9300 9c3d 5302 cf3c 75ef 8abc 1407 92bc
000002f0: 3dab f9bc fb09 bdba 5fa1 b23c 67af 1dbc
00000300: 39dc abbc de7c 9bbc 4014 593c 615c 693b
00000310: 7ac1 243d 38d5 453c a5e1 cb3c 7c23 fdbc
00000320: 0771 0abc f5f6 94bc 410a 7e3b 4c08 53bc
00000330: 701a 9b3c 146e 2fbd d198 3bbd 361f 25bb
00000340: 6678 46bd 9d7f ee3c 129c fdbc 6e3c be3b
00000350: 7bdf 84bc 629d 873a 162d 553c 0859 bdbd
00000360: 79aa 783d 8f33 fdbb bd00 d63c 8d39 0fbd
00000370: 6dee abbd 1c0b 723d ea82 bd3a e51f 3c3d
00000380: 3aca 073d e36f 5dbc 37db 2ebc e5a3 9c3c
00000390: aec9 963c 99b1 cf3c 054c 19bc 6990 ecbc
000003a0: 986f 423d 9394 f93b 5747 93bd 19fa db3d
000003b0: d2bc b73c c054 713d 4132 b43c 5981 953c
000003c0: 2ffe 0abb e6fc 3b3c 9b03 703c 5fde c63c
000003d0: 8d64 0f3d 65a2 e43d 3080 0c3d d1b1 fe3c
000003e0: 93a6 253d 3c75 783d c74d 4c3d 3baf f83c
000003f0: d0f1 db3d 23ac 80bc 91d3 c63c aa38 8ebc

bias f4 [200]
0.043214805 0.06836879 -0.097768135 0.035105668 0.024394112 -0.055289704 -0.08385182 -0.0207992
-0.036154754 0.01673961 0.0155204525 -0.118830554 0.037899535 -0.016203368 0.052596617 -0.088857286
0.06564159 -0.0070266123 0.11605305 0.03340247 -0.07800384 -0.0047895974 0.032143287 -0.07619572
-0.07538861 0.0020838592 0.07996484 0.039504178 -0.07225499 -0.122002155 -0.012000161 0.07563625
-0.04538368 -0.080235116 -0.1327379 -0.053185977 0.108034894 0.034248795 0.07088569 -0.063362285
-0.1138422 0.10128383 0.016313823 0.029344644 0.017706076 0.0027858517 0.014002141 -0.0045601153
0.035074838 0.025232324 -0.025317386 -0.041774224 0.016123861 -0.07055965 -0.01951196 -0.014025892
0.0027904182 -0.098788284 0.11150348 -0.004151394 -0.094862446 0.0028049436 0.08466357 -0.04802725
0.07308758 -0.0313694 -0.093872175 0.09254028 -0.003032012 0.060045686 -0.027917624 -0.0070102597
-0.036173955 -0.048234317 0.0034073738 0.12182422 0.005483734 -0.017493596 -0.0536577 -0.007518788
-0.042099606 0.107008725 0.021826455 -0.008436573 0.1296547 0.014485249 -0.032952517 0.0381129
-0.072408095 0.04297807 -0.12138933 -0.08578664 0.032193713 0.052244186 0.047523092 0.07154101
0.09228241 0.11421916 0.09209727 -0.08545822 0.0708627 0.035324797 0.016211974 -0.0037293246
-0.11928598 -0.004840778 0.05278781 -0.005076565 0.026949594 0.013585205 -0.05226079 0.009144265
0.10995299 0.11822057 -0.022596147 -0.05139106 0.008859097 0.010169687 -0.0589011 0.036690682
0.017451921 -0.09970853 0.006685168 -0.071610875 -0.009429503 -0.089129135 -0.07875046 -0.08602279
-0.00347502 0.03729105 -0.011775189 -0.039421037 -0.015144246 -0.015745712 -0.049575295 -0.027391884
0.014972156 0.012837079 0.03942506 0.018623091 -0.019563759 0.024954071 0.05732516 0.0037804428
-0.02837564 0.051426653 -0.0055917394 -0.042204626 0.0424526 0.04660378 -0.06486778 0.07433085
-0.017180266 -0.021488044 0.09284916 -0.024705796 0.053996406 -0.028800132 0.09182304 -0.03489581
0.010267882 0.025451217 0.07882134 0.003108108 0.06680173 0.046210118 -0.06844406 0.023118148
0.044902306 -0.059684888 0.02595294 -0.04176091 0.0290896 -0.031986196 0.11511083 0.035958458
-0.015179006 0.056472905 -0.07649674 0.08210865 0.109184824 0.008140945 -0.051167972 0.08097644
-0.027199762 -0.015178145 -0.0495752 -0.04046578 0.06932558 0.006724566 0.106799334 -0.006658908
0.04549404 -0.05717239 0.012701754 0.022808071 0.108309574 0.018884052 -0.0793257 0.016517239
00000000: 0202 313d f004 8c3d a93a c8bd f6ca 0f3d
00000010: 29d6 c73c 7577 62bd 81ba abbd 1563 aabc
00000020: 0217 14bd 8221 893c 7f49 7e3c 6f5d f3bd
00000030: 8b3c 1b3d edbc 84bc 8d6f 573d cffa b5bd
00000040: 196f 863d 7f3f e6bb 39ad ed3d 07d1 083d
00000050: 7ac0 9fbd 0ef2 9cbb aea8 033d 800c 9cbd
00000060: 5865 9abd 5b91 083b 9bc4 a33d 22cf 213d
00000070: 6dfa 93bd 44dc f9bd 539c 44bc 2ee7 9a3d
00000080: 3de4 39bd 4f52 a4bd 72ec 07be 8ad9 59bd
00000090: 6641 dd3d 7748 0c3d 842c 913d 16c4 81bd
000000a0: 1926 e9bd e66d cf3d 91a4 853c 2e64 f03c
000000b0: 550c 913c d692 363b 3c69 653c 056d 95bb
000000c0: a2aa 0f3d 05b4 ce3c 6866 cfbc 731b 2bbd
000000d0: 3016 843c 9481 90bd 8cd7 9fbc dbcc 65bc
000000e0: 73df 363b 8351 cabd f05b e43d 6b08 88bb
000000f0: 3e47 c2bd 25d3 373b 1864 ad3d 39b8 44bd
00000100: f1ae 953d 337d 00bd 0e40 c0bd c285 bd3d
00000110: b8b4 46bb 77f2 753d 80b3 e4bc 52b6 e5bb
00000120: 242b 14bd 5991 45bd 3f4e 5f3b fa7e f93d
00000130: e5b0 b33b bb4e 8fbc 2dc8 5bbd 2a60 f6bb
00000140: a370 2cbd 6427 db3d 65cd b23c 8d39 0abc
00000150: 34c4 043e 8a53 6d3c 38f9 06bd 461c 1c3d
00000160: b24a 94bd c609 303d f89a f8bd e8b0 afbd
00000170: 8edd 033d 00fe 553d 93a7 423d 1884 923d
00000180: 8ffe bc3d bceb e93d 7e9d bc3d b804 afbd
00000190: 7720 913d bcb0 103d f9ce 843c af67 74bb
000001a0: 354c f4bd 649f 9ebb 0838 583d 5059 a6bb
000001b0: 65c5 dc3c 7b94 5e3c 690f 56bd d4d1 153c
000001c0: 092f e13d a01d f23d 8e1b b9bc 6f7f 52bd
000001d0: bf25 113c c29e 263c 4842 71bd f848 163d
000001e0: 55f7 8e3c fc33 ccbd 410f db3b b9a8 92bd
000001f0: 347e 1abc 5689 b6bd ec47 a1bd b72c b0bd
00000200: 29bd 63bb 80be 183d b9ec 40bc f477 21bd
00000210: 921f 78bc 27fd 80bc 770f 4bbd f264 e0bc
00000220: c64d 753c 9d52 523c 2c7c 213d 748f 983c
00000230: 2d44 a0bc 7b6c cc3c c9cd 6a3d 4ec1 773b
00000240: 0874 e8bc c1a4 523d e93a b7bb c2de 2cbd
00000250: c7e2 2d3d 9be3 3e3d 66d9 84bd c63a 983d
00000260: a1bd 8cbc b207 b0bc b327 be3d cf63 cabc
00000270: 562b 5d3d 41ee ebbc b80d bc3d e9ee 0ebd
00000280: 9e3a 283c 127f d03c 156d a13d 66b1 4b3b
00000290: 58cf 883d d246 3d3d 662c 8cbd 4562 bd3c
000002a0: 7beb 373d 2478 74bd 439b d43c 7d0d 2bbd
000002b0: 504d ee3c f503 03bd 3abf eb3d 2d49 133d
000002c0: 5eb1 78bc 2250 673d 53aa 9cbd 9428 a83d
000002d0: 4b9c df3d 9961 053c 8295 51bd fad6 a53d
000002e0: 09d2 debc c1ad 78bc 5d0f 4bbd 72bf 25bd
000002f0: 92fa 8d3d c059 dc3b 9cb9 da3d f832 dabb
00000300: f557 3a3d 992d 6abd 051b 503c fed7 ba3c
00000310: 69d1 dd3d bab2 9a3c 8375 a2bd 294f 873c

weight f4 [10, 200]
0.114533804 -0.069557555 -0.0877958 0.065428734 -0.059152387 -0.11416862 -0.088200085 0.049373914
-0.03973707 0.08801566 -0.010336423 -0.08051459 0.05163327 0.020272875 0.040620495 -0.092701636
0.11179939 0.066051155 0.062464688 -0.124454066 0.08933244 -0.06658515 0.056916747 0.072852805
-0.082917504 -0.05216546 0.08546035 -0.0918181 -0.036001932 -0.023918562 0.10068135 0.08344357
0.04746961 -0.07613782 -0.08208257 0.03225539 0.048910946 0.034222547 -0.07928079 -0.07049293
-0.025617262 0.11915335 -0.024535824 0.048232473 0.08586586 0.049513564 -0.06424082 0.06479588
-0.06484772 -0.09902226 -0.08894388 -0.03076375 0.06919926 -0.024817763 -0.08287081 0.013351543
0.0642684 -0.05688206 -0.14347515 0.03564283 -0.05386061 -0.08198098 0.10254784 -0.078940846
-0.06658927 -0.06261982 -0.11878923 0.052975785 0.028097052 0.02892596 -0.043714143 -0.068802156
-0.049987607 -0.02998121 0.024757788 0.07413918 -0.10112857 -0.069740996 -0.066625245 -0.06648209
-0.043267466 -0.040167026 0.050630316 0.04100989 -0.08434895 -0.04810911 0.074503504 -0.09022552
-0.062154792 -0.06743628 -0.08113357 -0.06989705 0.034586623 0.08888709 -0.051379412 -0.009047234
0.08009917 0.036939543 0.067236684 -0.05504332 0.017118162 -0.055097025 -0.10634193 0.043518346
0.04581906 -0.050395884 0.07670681 0.039309084 0.06391505 -0.013002126 0.05667769 0.020858582
0.041806914 -0.062099997 -0.08602005 -0.06588578 0.09563279 -0.054584768 -0.09150121 -0.050246146
-0.04798981 -0.13932978 -0.00228778 0.05937324 0.08869137 0.024683863 -0.08934789 0.12608935
-0.103709534 -0.088465646 -0.006873901 -0.11677903 -0.048807614 0.05244116 0.04613134 -0.08523366
-0.05331405 0.05711153 0.047132034 0.019896533 0.08428314 0.076167315 0.07040731 0.03581614
0.051724903 -0.0262401 -0.077165075 0.049727947 -0.016658487 -0.0862033 -0.05210956 0.070763
-0.030975193 -0.06678369 0.0034854345 -0.008540938 0.08313255 0.01629358 0.09862578 0.08940967
0.04415727 -0.004410003 0.031989675 -0.0430128 0.03258575 0.06186167 0.045313798 -0.08206133
0.04597658 -0.019074308 -0.057607155 -0.1053813 -0.083016105 0.055917997 -0.06935803 0.0683573
-0.09772387 -0.08852215 -0.09828168 -0.018704103 -0.07250985 0.075446956 -0.057391185 0.08789875
0.07472709 -0.04795257 0.07313176 0.010047404 0.070130594 0.095637865 -0.062404186 0.066299
0.04187156 -0.08834955 -0.10110864 0.019409064 0.021256696 -0.0044846926 0.013070336 -0.098883495
0.08457117 -0.0021704964 0.1261256 0.13275516 -0.13847269 0.088250384 -0.07533254 0.038609963
0.024846192 -0.11593098 -0.057656612 0.081417695 0.048942257 0.09465144 -0.11350412 0.10655456
-0.07857972 -0.02891905 0.1088712 -0.13946326 0.113263 0.044769034 0.028974107 0.10145562
0.1275718 -0.011815128 -0.18770663 -0.03520308 0.12445506 0.21012868 0.17987214 -0.15027636
0.13650753 -0.1211676 -0.07837162 -0.15394798 -0.007955224 -0.011671439 -0.14500864 0.07644169
0.25356883 -0.09999962 -0.09498681 -0.08206498 -0.10409299 0.042346623 0.12988721 0.08916121
-0.04292941 -0.078854494 -0.03907192 0.18423334 -0.19612333 0.17498907 -0.1783928 -0.1114255
00000000: b390 ea3d 3174 8ebd 49ce b3bd 80ff 853d
00000010: c649 72bd 3dd1 e9bd 3fa2 b4bd 4d3c 4a3d
00000020: 57c3 22bd 8e41 b43d 1a5a 29bc d5e4 a4bd
00000030: 687d 533d 4d13 a63c ad61 263d 5bda bdbd
00000040: 14f7 e43d d445 873d f9da 7f3d c6e1 febd
00000050: edf3 b63d cc5d 88bd 8921 693d da33 953d
00000060: a7d0 a9bd 73ab 55bd d605 af3d 210b bcbd
00000070: c376 13bd dcf0 c3bc 0632 ce3d 76e4 aa3d
00000080: 7e6f 423d 25ee 9bbd e81a a8bd 3a1e 043d
00000090: d856 483d f12c 0c3d f85d a2bd 995e 90bd
000000a0: 4bdb d1bc ac06 f43d 5aff c8bc 6a8f 453d
000000b0: 71da af3d bcce 4a3d b190 83bd b4b3 843d
000000c0: e2ce 84bd 2fcc cabd 3528 b6bd 4304 fcbc
000000d0: 57b8 8d3d 9f4e cbbc 2cb8 a9bd 6ec0 5a3c
000000e0: 279f 833d 2afd 68bd 26eb 12be 37fe 113d
000000f0: f19c 5cbd a5e5 a7bd 9a04 d23d bdab a1bd
00000100: f55f 88bd d23e 80bd c547 f3bd 23fd 583d
00000110: ca2b e63c 23f6 ec3c 9a0d 33bd 25e8 8cbd
00000120: cebf 4cbd 289b f5bc d8d0 ca3c 48d6 973d
00000130: 7f1c cfbd 5ed4 8ebd d172 88bd c327 88bd
00000140: 3a39 31bd 2e86 24bd bc61 4f3d fdf9 273d
00000150: 24bf acbd 0f0e 45bd 4b95 983d 28c8 b8bd
00000160: 0696 7ebd 081c 8abd 5b29 a6bd 2f26 8fbd
00000170: b4aa 0d3d 6f0a b63d 3873 52bd da3a 14bc
00000180: 090b a43d eb4d 173d 63b3 893d 1b75 61bd
00000190: 633b 8c3c 6bad 61bd ccc9 d9bd 4b40 323d
000001a0: c4ac 3b3d ea6b 4ebd 7618 9d3d 9002 213d
000001b0: e5e5 823d de06 55bc de26 683d 9edf aa3c
000001c0: ba3d 2b3d 915c 7ebd 482b b0bd 20ef 86bd
000001d0: 20db c33d 4794 5fbd fd64 bbbd e7ce 4dbd
000001e0: f790 44bd 77ac 0ebe 94ee 15bb 5b31 733d
000001f0: d2a3 b53d d035 ca3c 07fc b6bd 911d 013e
00000200: aa65 d4bd 7a2d b5bd 763e e1bb d829 efbd
00000210: 7eea 47bd 8bcc 563d 37f4 3c3d fc8e aebd
00000220: d55f 5abd c8ed 693d 850d 413d 0efe a23c
00000230: a49c ac3d 9cfd 9b3d b531 903d f2b3 123d
00000240: 7edd 533d 7af5 d6bc b908 9ebd 88af 4b3d
00000250: 6177 88bc 5b8b b0bd d670 55bd 31ec 903d
00000260: b0bf fdbc e3c5 88bd e36b 643b 4aef 0bbc
00000270: 6641 aa3d 1d7a 853c 50fc c93d 6b1c b73d
00000280: 41de 343d c981 90bb 9b07 033d 312e 30bd
00000290: a378 053d aa62 7d3d f69a 393d c50f a8bd
000002a0: f051 3c3d b941 9cbc 7bf5 6bbd 27d2 d7bd
000002b0: 5904 aabd 450a 653d 950b 8ebd e9fe 8b3d
000002c0: 7423 c8bd 1a4b b5bd e847 c9bd 5939 99bc
000002d0: 0b80 94bd ef83 9a3d 0513 6bbd 4304 b43d
000002e0: 840a 993d ea69 44bd 1bc6 953d de9d 243c
000002f0: a1a0 8f3d c9dd c33d 889b 7fbd c5c7 873d
00000300: 8381 2b3d 9cf0 b4bd 0c12 cfbd c2ff 9e3c
00000310: 8622 ae3c 54f4 92bb f624 563c 6e83 cabd
00000320: a633 ad3d e33e 0ebb 1227 013e f8f0 073e
00000330: c9cb 0dbe 9ebc b43d f247 9abd 7b25 1e3d
00000340: 3e8a cb3c 396d edbd 5729 6cbd 52be a63d
00000350: ad77 483d 9dd8 c13d d974 e8bd 4739 da3d
00000360: 67ee a0bd a5e7 ecbc ddf7 de3d 75cf 0ebe
00000370: 6ff6 e73d bc5f 373d 1b5b ed3c f7c7 cf3d
00000380: 2fa2 023e 3d94 41bc 2b36 40be 1b31 10bd
00000390: 4be2 fe3d f92b 573e 6730 383e 0ce2 19be
000003a0: a1c8 0b3e b826 f8bd 4d81 a0bd 8aa4 1dbe
000003b0: a156 02bc 9039 3fbc 257d 14be 768d 9c3d
000003c0: c6d3 813e 9acc ccbd 7288 c2bd af11 a8bd
000003d0: b52e d5bd a773 2d3d 2701 053e 279a b63d
000003e0: c0d6 2fbd 777e a1bd e109 20bd aaa7 3c3e
000003f0: 8ed4 48be 5630 333e 9aac 36be 0d33 e4bd

bias f4 [10]
0.008463948 -0.20232704 0.032034684 0.016217934 -0.21985304 -0.005753012 0.16150966 -0.058945037
0.1294657 -0.06684704
00000000: 5fac 0a3c d22e 4fbe cd36 033d 79db 843c
00000010: 2821 61be c383 bcbb ca62 253e 5a70 71bd
00000020: a892 043e 1ae7 88bd
